PyTorch/3-CNN/mnist_net.pth (torch, 142465 bytes, 6 tensors)

conv1.weight f4 [15, 1, 5, 5]
0.0056879115 0.19309749 -0.015841333 0.037520934 0.19328614 -0.08096607 -0.019037275 0.1438465
0.21515942 0.06799787 -0.14120527 0.07343225 0.054442227 0.18302886 0.32709026 -0.14996444
-0.010647296 0.33313194 0.101105906 0.30752197 0.08388158 0.25320616 0.248042 0.30186644
-0.09249064 0.25167832 0.2672427 0.1301399 0.25562137 0.14653333 0.30712238 0.30108717
0.3216427 0.13878882 0.11345035 0.04923295 0.08915761 0.3447558 0.1767829 0.14518668
-0.018109912 -0.07126114 0.22780365 -0.06487346 -0.09611709 0.25500834 0.10094449 0.13468789
0.045442503 0.07613285 0.22960989 0.17742793 0.27662086 0.19593799 -0.16165783 -0.07529869
0.25955477 0.244585 -0.106814526 0.13654104 -0.0048976676 0.2799353 0.17545715 -0.048004057
0.055568386 0.19990554 -0.042499635 0.24967468 -0.04362393 -0.11675588 0.076180845 -0.108706206
0.16958027 0.06863857 0.07470693 0.08779643 0.016850386 -0.09209121 0.09213346 -0.16299203
0.026221206 -0.1306347 0.26601854 0.22115777 0.20180704 -0.080759555 0.24770504 -0.056634203
0.056555156 0.29776517 0.29435447 0.13088258 0.3087212 0.21225926 -0.0018841724 0.12469745
0.12712407 0.17245622 0.048934903 0.025072083 -0.030195935 -0.11943665 -0.082211494 0.20337734
0.28569624 -0.20010047 -0.0877973 0.030852506 -0.021274695 0.27767256 -0.06571999 0.17640159
0.11846532 -0.011951974 0.07646917 -0.104549125 0.002272671 0.2184491 0.12706935 0.33131015
-0.036178827 0.06061256 0.30880746 0.29532543 0.30240074 0.012609043 0.116627894 -0.18170613
-0.15667334 0.12369721 -0.14941174 0.06697815 -0.07918842 -0.0477842 -0.18009835 0.20947729
0.12476284 -0.0017544446 -0.0031098155 0.111098416 0.08346595 0.08385961 0.06938355 -0.047539655
0.18162496 -0.011866082 0.038669746 0.062076654 0.15832977 -0.05669493 0.13759027 0.09828709
0.14192584 0.2077107 0.12839524 -0.13315818 -0.0027746493 -0.086280964 0.023390982 -0.06217001
0.12472814 -0.17558295 -0.1436574 -0.0385571 -0.18992262 0.18850447 0.08180625 -0.07232065
-0.18953277 -0.054687805 0.070052184 0.01391457 0.19749932 -0.1190231 -0.014569624 -0.071006656
-0.18595316 0.020021165 -0.06374836 0.07649091 0.036225364 0.18596406 -0.19342288 -0.021802507
-0.06467292 0.009985815 -0.052132435 -0.026125187 -0.09438549 0.09234308 0.096562885 0.045671657
-0.041253094 -0.08633021 -0.18639438 -0.19956511 0.07453485 -0.122801945 -0.1897161 0.060888384
-0.15168175 -0.14808154 -0.14871496 0.07330704 -0.161529 -0.04910992 0.0927805 -0.027849307
0.15007618 0.14214672 -0.14246732 -0.11815351 -0.10870571 -0.17069243 0.07780266 0.041557916
0.168047 0.16090836 -0.17842294 -0.15248126 0.14754254 0.14536838 -0.115867764 -0.13352896
-0.057066575 -0.075220905 -0.19261524 0.04385265 0.20181288 0.0660406 -0.16657257 0.04135781
0.18277943 0.08983823 -0.02764651 -0.0611524 -0.15559304 -0.14555858 0.031793326 0.16763666
-0.0026471582 0.16310354 -0.02518726 -0.011523114 -0.082818024 0.07723653 -0.015743906 -0.10923065
-0.016404258 -0.13838068 -0.06209949 0.10013167 0.14495058 0.19410136 -0.123480886 0.10252765
00000000: a961 ba3b 59bb 453e afc5 81bc 8daf 193d
00000010: cdec 453e 8ad1 a5bd 0ff4 9bbc 7f4c 133e
00000020: c052 5c3e 7842 8b3d 1d98 10be a663 963d
00000030: d0fe 5e3d eb6b 3b3e 6078 a73e 4790 19be
00000040: ff71 2ebc 4590 aa3e 9d10 cf3d 8573 9d3e
00000050: 1bca ab3d 3da4 813e b9fe 7d3e 3d8e 9a3e
00000060: bc6b bdbd fbdb 803e 09d4 883e 6543 053e
00000070: cee0 823e d50c 163e 253f 9d3e 1928 9a3e
00000080: 5aae a43e a81e 0e3e a858 e83d 7da8 493d
00000090: 4498 b63d d583 b03e 9406 353e d1ab 143e
000000a0: 3d5b 94bc 5cf1 91bd 5c45 693e 60dc 84bd
000000b0: 09d9 c4bd 7490 823e fcbb ce3d 9feb 093e
000000c0: eb21 3a3d 8aeb 9b3d db1e 6b3e abaf 353e
000000d0: 40a1 8d3e f8a3 483e a189 25be 3336 9abd
000000e0: 5de4 843e 7e74 7a3e 93c1 dabd 6ad1 0b3e
000000f0: 9d7c a0bb ae53 8f3e 0aab 333e e79f 44bd
00000100: ad9b 633d 0ab4 4c3e 1914 2ebd b8aa 7f3e
00000110: 02af 32bd b51d efbd b404 9c3d 5ca1 debd
00000120: 73a6 2d3e 6192 8c3d f2ff 983d 9dce b33d
00000130: d209 8a3c 519a bcbd 78b0 bc3d 62e7 26be
00000140: dbcd d63c 1ac5 05be 9533 883e 2f77 623e
00000150: 81a6 4e3e 4465 a5bd 64a6 7d3e 44f9 67bd
00000160: 61a6 673d ad74 983e a1b5 963e 1506 063e
00000170: b510 9e3e 7e5a 593e 56f6 f6ba 6061 ff3d
00000180: d02c 023e 5d98 303e f76f 483d f863 cd3c
00000190: 775d f7bc 349b f4bd 805e a8bd 2642 503e
000001a0: c746 923e 23e7 4cbe 12cf b3bd 65be fc3c
000001b0: 4548 aebc 192b 8e3e 3498 86bd 9ea2 343e
000001c0: f29d f23d 36d2 43bc de9b 9c3d da1d d6bd
000001d0: 18f1 143b 1fb1 5f3e 781e 023e 7ca1 a93e
000001e0: 4030 14bd e044 783d 031c 9e3e e534 973e
000001f0: 45d4 9a3e 2996 4e3c 9bda ee3d 2c11 3abe
00000200: fa6e 20be f654 fd3d 64ff 18be d72b 893d
00000210: 8a2d a2bd 5eb9 43bd b46b 38be 3781 563e
00000220: a983 ff3d 64f5 e5ba 0cce 4bbb 9187 e33d
00000230: 32f0 aa3d 96be ab3d f618 8e3d f1b8 42bd
00000240: e5fb 393e f569 42bc 2b64 1e3d 1744 7e3d
00000250: 3321 223e f138 68bd 77e4 0c3e be4a c93d
00000260: 0255 113e 1db2 543e 0b7a 033e 9e5a 08be
00000270: e4d6 35bb 13b4 b0bd 729e bf3c fba5 7ebd
00000280: 7871 ff3d 04cc 33be ed1a 13be 0dee 1dbd
00000290: 137b 42be 5107 413e 098a a73d d91c 94bd
000002a0: e114 42be 5200 60bd 8577 8f3d f0f9 633c
000002b0: 433d 4a3e 62c2 f3bd 6fb5 6ebc f06b 91bd
000002c0: 816a 3ebe 6d03 a43c 808e 82bd 44a7 9c3d
000002d0: 0c61 143d 5d6d 3e3e a610 46be 2c9b b2bc
000002e0: 3c73 84bd 8b9b 233c d288 55bd 7d04 d6bc
000002f0: 2e4d c1bd 5e1e bd3d c3c2 c53d 3412 3b3d
00000300: 01f9 28bd e5cd b0bd 2bde 3ebe cc5a 4cbe
00000310: baa5 983d 967f fbbd f044 42be 1966 793d
00000320: 7652 1bbe b0a2 17be bc48 18be 0022 963d
00000330: dc67 25be 7c27 49bd b403 be3d 3b24 e4bc
00000340: 92ad 193e e98e 113e f4e2 11be 78fa f1bd
00000350: 19a1 debd ffc9 2ebe 0057 9f3d a238 2a3d
00000360: 8314 2c3e 29c5 243e 81b4 36be 0c24 1cbe
00000370: 6415 173e 73db 143e 144c edbd d1bb 08be
00000380: a4be 69bd 6b0d 9abd ee3c 45be d69e 333d
00000390: 09a8 4e3e 4b40 873d 0092 2abe cf66 293d
000003a0: 882a 3b3e 1bfd b73d ef7a e2bc f07a 7abd
000003b0: c853 1fbe 4f0d 15be b839 023d f2a8 2b3e
000003c0: f27b 2dbb 9d04 273e 8355 cebc 71cb 3cbc
000003d0: 7f9c a9bd 302e 9e3d 5df9 80bc 52b4 dfbd
000003e0: 3962 86bc aab3 0dbe 095c 7ebd d511 cd3d
000003f0: ed6d 143e 82c2 463e 8ce3 fcbd 04fa d13d

conv1.bias f4 [15]
-0.018114083 0.16242073 -0.032838274 0.0001704583 0.024929734 -0.13970909 0.04589187 -0.056724466
0.07094736 -0.06256269 0.06694109 0.20151226 -0.05683018 -0.10785584 -0.17312178
00000000: fc63 94bc 9f51 263e 6d81 06bd 0dbd 3239
00000010: 7139 cc3c e60f 0fbe 1df9 3b3d ea57 68bd
00000020: d94c 913d de20 80bd 6918 893d 3b59 4e3e
00000030: c3c6 68bd 86e3 dcbd d646 31be

conv2.weight f4 [40, 15, 5, 5]
-0.005464625 0.0011255052 -0.012186985 -0.039870508 -0.04007335 -0.04574193 0.012814367 -0.009621789
0.003069771 0.021679766 -0.0063363565 -0.006911008 0.024290172 -0.0033903092 -0.01927322 0.002531593
-0.016306704 -0.021448236 -0.0015204577 -0.018777888 -0.038784984 0.012025275 0.00022589855 -0.051569767
-0.049422838 0.025160078 -0.009996621 0.011457939 -0.00840229 -0.018415667 -0.024896257 -0.01566906
-0.049614247 0.038394 0.025725763 0.023275662 -0.036149178 0.005429018 -0.024942506 0.004183416
0.047121294 -0.017613685 -0.029917527 -0.032591823 -0.0013179422 -0.019523272 0.01778833 -0.022796815
-0.007035747 0.045048323 -0.051301073 -0.025512986 0.017807672 -0.032914832 -0.007693022 -0.028163208
-0.008956261 -0.033188358 0.024232885 -0.012345528 0.018402264 -0.017601917 0.03696672 0.014739883
0.032077987 -0.026128668 0.009350083 0.03137242 -0.05136652 -0.03487284 0.03892527 -0.014164642
-0.03324619 0.0070108566 0.041276675 -0.011785144 -0.03858711 -0.051433016 -0.014134899 -0.026465071
-0.013841713 -0.048714783 -0.0073309443 -0.047039915 0.0048391377 -0.028055135 -0.04150782 0.05013608
-0.04688668 0.011785782 -0.05085037 0.043445036 -0.012019715 -0.02943053 -0.051817983 -0.00647087
-0.041155975 -0.03511383 -0.018446622 -0.031893183 0.01753806 -0.04569391 0.016419193 0.018485544
-0.0030506596 -0.032023534 -0.013697193 -0.050824765 0.0005814734 0.03165987 0.027843274 0.012355473
-0.040976204 -0.0033799994 0.03228029 -0.04811797 0.041012388 0.013740898 -0.0068869293 -0.007291166
0.0383108 0.02698183 -0.040052384 0.027600873 -0.0012665746 -0.020789068 -0.025204055 -0.03184789
-0.025773019 0.015795603 -0.044732552 0.033537332 0.041258 -0.03868946 0.051597793 -0.05111211
-0.02427053 0.020729877 -0.050136756 -0.013018626 -0.009366367 -0.046024673 0.020375103 -0.0121641625
-5.9320668e-05 0.02364291 0.024252405 0.042838335 -0.039725244 -0.009988119 -0.049685486 -0.043441013
-0.007754683 -0.03979385 0.025724147 -0.042406954 -0.016690103 -0.026614163 -0.0156569 -0.04578605
0.022201696 0.007697368 -0.0068394286 -0.03226468 0.036090408 -0.010265031 0.04046574 0.0466935
0.008860023 0.01604774 0.01156891 -0.0012024688 0.0514584 -0.036576428 -0.036511842 0.030989822
0.00086669164 0.014130066 0.015189401 0.012831339 -0.04755861 0.0286146 0.04540294 -0.021152508
0.012934668 0.019982086 0.017969845 -0.022314401 0.026278108 0.024067288 0.012104433 -0.03923528
0.0012724685 0.031339087 0.0142443385 0.007851318 0.044420354 0.03951703 0.016037552 0.004411202
0.036774594 0.0016036343 0.020917105 -0.04082996 -0.038690336 0.006550783 0.020486744 0.03852706
-0.040574607 0.018832754 0.004868306 -0.027008107 0.029207459 -0.015637161 0.036340233 -0.032793045
0.0015674996 0.028705424 0.047442954 -0.007871647 -0.046328995 0.04692866 -0.017005695 -0.03457458
0.024816612 0.03448745 -0.021185497 -0.03635564 0.050426636 0.044368386 0.02626508 -0.044787087
-0.033432532 -0.012338229 -0.027015375 -0.0045358757 0.039918847 -0.037842736 -0.02054503 0.04657831
-0.041431393 0.020582914 0.032809835 0.046594676 0.0068760384 0.0056200195 0.02318236 0.038103532
-0.016190423 -0.02383685 0.014936266 -0.037979357 -0.01785821 0.037350852 0.005089245 0.029934203
00000000: 9910 b3bb b085 933a ecab 47bc 424f 23bd
00000010: f423 24bd e45b 3bbd 5af3 513c b5a4 1dbc
00000020: 362e 493b c499 b13c 36a1 cfbb bd75 e2bb
00000030: 2ffc c63c f32f 5ebb dfe2 9dbc 15e9 253b
00000040: a395 85bc 36b4 afbc 184a c7ba 16d4 99bc
00000050: 01dd 1ebd a905 453c 2edf 6c39 d23a 53bd
00000060: 9a6f 4abd 821c ce3c dec8 23bc 14ba 3b3c
00000070: c2a9 09bc 74dc 96bc 3cf3 cbbc 675c 80bc
00000080: 4f38 4bbd 0743 1d3d d6be d23c 9aac be3c
00000090: 2911 14bd e7e5 b13b 3a54 ccbc 0915 893b
000000a0: 4202 413d 934a 90bc 9a15 f5bc 017f 05bd
000000b0: cdbe acba 45ef 9fbc d5b8 913c 63c0 babc
000000c0: 208c e6bb 9784 383d 1321 52bd 9c00 d1bc
000000d0: 65e1 913c b4d1 06bd bf15 fcbb 87b6 e6bc
000000e0: 48bd 12bc 84f0 07bd 0b84 c63c e644 4abc
000000f0: 58c0 963c e531 90bc 6a6a 173d 8d7f 713c
00000100: 3564 033d ca0b d6bc 1731 193c 5e80 003d
00000110: b365 52bd d3d6 0ebd 1b70 1f3d d112 68bc
00000120: 282d 08bd 54bb e53b bb11 293d 7a16 41bc
00000130: 840d 1ebd 6dab 52bd 1096 67bc 47cd d8bc
00000140: 5ac8 62bc 2789 47bd 6b38 f0bb edac 40bd
00000150: a191 9e3b e2d3 e5bc 1b04 2abd 7d5b 4d3d
00000160: 3f0c 40bd 2719 413c 7a48 50bd 6cf3 313d
00000170: 57ee 44bc 4b18 f1bc 183f 54bd 9809 d4bb
00000180: 2b93 28bd 85d3 0fbd 5f1d 97bc 6da2 02bd
00000190: faab 8f3c 8a29 3bbd 8b81 863c ff6e 973c
000001a0: 93ed 47bb 1c2b 03bd 316a 60bc a12d 50bd
000001b0: 056e 183a c8ad 013d 9417 e43c 9c6e 4a3c
000001c0: aad6 27bd fb82 5dbb 5638 043d 5917 45bd
000001d0: 9bfc 273d 8121 613c c0ab e1bb bcea eebb
000001e0: c9eb 1c3d 0009 dd3c f80d 24bd 3a1b e23c
000001f0: 3103 a6ba d64d aabc bc78 cebc ef72 02bd
00000200: f021 d3bc c865 813c 7b39 37bd 715e 093d
00000210: 26fe 283d d778 1ebd 3558 533d ef5a 51bd
00000220: fed2 c6bc b4d1 a93c 335c 4dbd 134c 55bc
00000230: 6475 19bc 5e84 3cbd b0e9 a63c 324c 47bc
00000240: 15cf 78b8 c7ae c13c fbac c63c 4077 2f3d
00000250: f0b6 22bd 35a5 23bc 0283 4bbd 34ef 31bd
00000260: ff1a febb e0fe 22bd 72bb d23c eab2 2dbd
00000270: afb9 88bc f205 dabc e642 80bc 278a 3bbd
00000280: 55e0 b53c 343a fc3b 491d e0bb f827 04bd
00000290: 89d3 133d a92e 28bc 67bf 253d af41 3f3d
000002a0: a129 113c 8d76 833c 878b 3d3c 289c 9dba
000002b0: 0bc6 523d 2ad1 15bd 718d 15bd 5ede fd3c
000002c0: b132 633a cb81 673c f7dc 783c 893a 523c
000002d0: d1cc 42bd 2a69 ea3c 6ff8 393d 0648 adbc
000002e0: eeeb 533c 79b1 a33c 7f35 933c b1cc b6bc
000002f0: 3045 d73c c328 c53c ac51 463c 2cb5 20bd
00000300: f5c8 a63a 6a5d 003d 1661 693c d1a2 003c
00000310: 1ef2 353d 9cdc 213d 2f61 833c d88b 903b
00000320: f5a0 163d 0a31 d23a 595a ab3c 513d 27bd
00000330: c279 1ebd f3a7 d63b d1d3 a73c 8dce 1d3d
00000340: 8f31 26bd 2647 9a3c 5086 9f3b 1b40 ddbc
00000350: 7b44 ef3c 8119 80bc 7fd9 143d 0052 06bd
00000360: 8f74 cd3a a327 eb3c 8b53 423d 15f8 00bc
00000370: 79c3 3dbd 4438 403d 874f 8bbc 139e 0dbd
00000380: 354c cb3c b642 0d3d 358d adbc a7e9 14bd
00000390: 298c 4e3d a0bb 353d dd29 d73c aa72 37bd
000003a0: 8df0 08bd 4926 4abc 594f ddbc afa1 94bb
000003b0: f281 233d fc00 1bbd 0d4e a8bc e6c8 3e3d
000003c0: f7b3 29bd 809d a83c 9b63 063d 0fda 3e3d
000003d0: 6450 e13b 2428 b83b efe8 bd3c 7312 1c3d
000003e0: c7a1 84bc 7f45 c3bc 3db7 743c 3e90 1bbd
000003f0: 614b 92bc 35fd 183d aec3 a63b 9338 f53c

conv2.bias f4 [40]
0.049198326 0.003997008 -0.03137923 -0.021483418 0.035713524 -0.0097543225 -0.035554104 0.0169792
-0.026452992 0.04170144 0.028723279 0.07336782 0.009801961 0.019100616 0.0515623 -0.015779726
-0.0072434884 0.0009988644 0.04847482 0.053563718 0.05845785 -0.024856558 0.026673052 0.019871248
-0.04897775 -0.048008427 -0.01698871 0.007975407 -0.011112942 0.044628225 0.024412196 0.021028204
0.009453687 0.04754382 0.045234583 0.04649485 0.019939158 0.04576466 0.034466997 0.0076544187
00000000: 2f84 493d 55f9 823b 8287 00bd fefd afbc
00000010: 5848 123d 98d0 1fbc 2ea1 11bd f717 8b3c
00000020: f2b3 d8bc 21cf 2a3d 154d eb3c de41 963d
00000030: 6798 203c e578 9c3c fe32 533d 7c44 81bc
00000040: c95a edbb 54ec 823a 888d 463d a165 5b3d
00000050: 8071 6f3d fb9f cbbc 7281 da3c 07c9 a23c
00000060: e59c 48bd 7ca4 44bd e82b 8bbc 48ab 023c
00000070: 0f13 36bc 16cc 363d 16fc c73c 5743 ac3c
00000080: a3e3 1a3c 4fbd 423d e647 393d 6271 3e3d
00000090: 7257 a33c b973 3b3d 442d 0d3d ebd1 fa3b

dense1.weight f4 [10, 1960]
-0.012857557 0.0111495145 0.010940309 0.0019491664 -0.008050522 0.0028245898 -0.01086763 -0.00022538344
-0.014671668 -0.017399497 -0.013925538 -0.00014729946 -0.012100523 0.014257539 -0.022059865 0.005176466
-0.020932503 0.019031273 -0.020913785 -0.01686398 -0.0051619452 -0.006458355 0.016699828 -0.0057969103
-0.017023584 0.0050760987 0.012513332 -0.019174084 0.004765324 0.011156141 -0.011128177 0.0034650296
0.009889361 0.010634642 0.011485667 -0.005629829 0.0064714835 -0.020550467 -0.017552484 -0.020363158
-0.020093916 -0.009921644 -0.017463814 0.011919015 0.017472891 -0.0155166825 0.004456071 -0.004859626
0.0010337929 0.0038449927 0.0010161364 0.0079325065 0.011971498 0.0086473115 -0.020250916 -0.015982674
-0.023962859 0.0046202866 -0.0038787795 0.021287646 -0.0073711816 -0.008358891 0.020938866 -0.013434401
-0.0051714326 -0.032395914 -0.009771587 -0.013079274 -0.019836275 -0.017420275 0.0042717266 -0.008145887
0.0003051503 -0.0366524 0.011959451 0.021326741 -0.024945535 -0.02179686 0.018901818 0.021095328
-0.028926663 0.0019923854 0.0021502362 0.0146089345 -0.015398077 0.019532945 0.037859373 -0.017781459
-0.03002096 -0.027654706 0.0038086919 -0.012497406 -0.0015169563 -0.0034500195 0.0058445004 -0.005539898
-0.017791687 0.01459987 0.0068032052 -0.019382076 0.0061744964 0.014419209 -0.0061523975 -0.014481258
0.0177836 -0.013286361 -0.017993454 -0.013718498 -0.010629106 -0.01362995 0.0047059073 -0.0067890086
0.004832315 -0.007235037 -0.013798654 0.03125643 0.023571905 -0.0036705232 0.0024147918 -0.011985752
-0.00072829396 -0.0011749907 -0.0016006926 -0.0089631425 0.020338474 -0.006149387 -0.019254955 0.013454867
-0.028905476 -0.03784151 -0.020960473 0.026089046 0.0014306679 -0.017435685 0.010257495 -0.019542526
0.001539367 0.005378261 -0.016327603 -0.012554169 0.018049937 0.013925429 -0.009764385 0.015032573
0.0114115 -0.007714073 0.003056588 0.007666743 -0.023473164 -0.019962158 -0.004267406 0.024156714
0.008224074 -0.006788385 -0.023532024 0.012376882 0.024305841 0.006099174 0.020259582 -0.010565475
-0.0047691646 -0.020321345 -0.0038748067 0.022508027 -0.0010655366 -0.0028200743 -0.019140815 0.003543797
0.013574898 -0.018384816 0.004716708 0.009894259 -0.00043915774 -0.021246362 -0.008042932 -0.003221969
0.009546956 0.002763673 0.0032412368 -0.0097316895 0.0063293236 0.010929387 0.014080216 -0.0086886985
-0.011771199 0.010013075 0.018720826 -0.014315154 -0.015818458 -0.022124564 0.019893404 -0.009364172
0.008637274 0.010734051 -0.013999251 -0.0022399595 -0.019729413 0.010991487 0.0121877035 -0.00586542
0.020791728 0.008452674 0.012689947 0.013489266 -0.014889094 0.013342828 -0.022466695 -0.017621525
0.0047519812 -0.0016548473 -0.013197375 0.0040194816 -0.016918454 0.02354474 -0.0051878146 -0.0036985942
-0.004211814 -0.0049496065 -0.013095561 -0.008226347 0.033588257 0.012852009 -0.011654258 0.00092550815
-0.0077738804 0.012803101 -0.014462105 0.010080998 -0.01821331 -0.027371174 -0.007277428 0.016401812
0.0021908164 0.019808652 -0.0064506573 -0.02480716 0.017372387 -0.013061305 0.021018416 -0.013392861
-0.0003023931 0.026487993 -0.012296544 0.017191688 0.010134648 -0.017914895 0.0013261867 -0.005640246
0.018600803 0.012809039 0.012425801 0.017360182 -0.0039361087 -0.014370926 -0.00031632686 -0.010902833
00000000: 81a8 52bc 74ac 363c fb3e 333c 2c7b ff3a
00000010: 56e6 03bc c11c 393b 250e 32bc e854 6cb9
00000020: 7061 70bc 6489 8ebc f127 64bc 6674 1ab9
00000030: 4641 46bc 7498 693c e4b6 b4bc 589f a93b
00000040: a47a abbc 79e7 9b3c 6353 abbc 5426 8abc
00000050: 8925 a9bb 9ca0 d3bb 14ce 883c 02f4 bdbb
00000060: 0b75 8bbc 6755 a63b b804 4d3c f812 9dbc
00000070: 6f26 9c3b 3fc8 363c f552 36bc 8d15 633b
00000080: fd06 223c ec3c 2e3c 612e 3c3c 6e7a b8bb
00000090: bd0e d43b 7459 a8bc 3aca 8fbc a3d0 a6bc
000000a0: ff9b a4bc 648e 22bc 4610 8fbc f947 433c
000000b0: 4f23 8f3c af39 7ebc 3c04 923b 7f3d 9fbb
000000c0: 5580 873a 46fc 7b3b e12f 853a 58f7 013c
000000d0: 1a24 443c 74ad 0d3c 40e5 a5bc 19ee 82bc
000000e0: c24d c4bc c665 973b 1f33 7ebb 6e63 ae3c
000000f0: f489 f1bb bbf3 08bc fc87 ab3c f61b 5cbc
00000100: 1f75 a9bb 94b1 04bd 0219 20bc 744a 56bc
00000110: af7f a2bc f7b4 8ebc d7f9 8b3b 5476 05bc
00000120: 94fc 9f39 d420 16bd 93f1 433c 6bb5 ae3c
00000130: 945a ccbc 548f b2bc fcd7 9a3c 1cd0 ac3c
00000140: 9cf7 ecbc ae92 023b faea 0c3b 505a 6f3c
00000150: 3748 7cbc 8e03 a03c 6e12 1b3d 6caa 91bc
00000160: 84ee f5bc 1f8c e2bc 3f9b 793b ecc1 4cbc
00000170: 9bd4 c6ba b919 62bb 3983 bf3b 0888 b5bb
00000180: dfbf 91bc 4b34 6f3c 6ced de3b 29c7 9ebc
00000190: 6e53 ca3b 8c3e 6c3c 0d9a c9bb cc42 6dbc
000001a0: eaae 913c 09af 59bc 0267 93bc 8dc3 60bc
000001b0: b425 2ebc 2750 5fbc 0334 9a3b 5576 debb
000001c0: 6558 9e3b e413 edbb c013 62bc be06 003d
000001d0: de19 c13c 298d 70bb 7c41 1e3b e35f 44bc
000001e0: fbea 3eba 2502 9aba 55ce d1ba 25da 12bc
000001f0: df9c a63c cc80 c9bb 91bc 9dbc cd71 5c3c
00000200: 2dcb ecbc b3ff 1abd 4cb5 abbc b2b8 d53c
00000210: 4085 bb3a 48d5 8ebc 0d0f 283c a617 a0bc
00000220: 96c4 c93a 203c b03b 77c1 85bc 00b0 4dbc
00000230: 76dd 933c 7c27 643c cdfa 1fbc 2e4b 763c
00000240: 4df7 3a3c 56c6 fcbb 0951 483b 4d39 fb3b
00000250: cb4a c0bc ae87 a3bc 99d5 8bbb 4de4 c53c
00000260: 44be 063c 1a71 debb 3bc6 c0bc 68c8 4a3c
00000270: 0b1d c73c 94db c73b 6cf7 a53c d01a 2dbc
00000280: a746 9cbb f378 a6bc 78f0 7dbb c162 b83c
00000290: 7aa9 8bba ffd0 38bb 33cd 9cbc 0c3f 683b
000002a0: 4069 5e3c c19b 96bc 9d8e 9a3b 881b 223c
000002b0: c13e e6b9 da0c aebc 80c6 03bc ab27 53bb
000002c0: d66a 1c3c bd1e 353b ee6a 543b aa71 1fbc
000002d0: 3766 cf3b 2c11 333c b5b0 663c 0b5b 0ebc
000002e0: fddb 40bc e10d 243c 6b5c 993c 1c8a 6abc
000002f0: b695 81bc 933e b5bc 7ef7 a23c 2f6c 19bc
00000300: 5a83 0d3c dfdd 2f3c 1d5d 65bc 49cc 12bb
00000310: 949f a1bc a315 343c efae 473c b632 c0bb
00000320: 6a53 aa3c 167d 0a3c 7fe9 4f3c 1502 5d3c
00000330: 63f1 73bc e09b 5a3c 130c b8bc 045b 90bc
00000340: 82b6 9b3b 76e7 d8ba ce39 58bc dbb5 833b
00000350: 9298 8abc e6e0 c03c 8bfe a9bb 1d64 72bb
00000360: 4203 8abb 4f30 a2bb c48e 56bc cdc7 06bc
00000370: d793 093d 3c91 523c 80f1 3ebc cd9d 723a
00000380: 09bc febb 19c4 513c 77f2 6cbc c52a 253c
00000390: 1434 95bc 8339 e0bc 7e77 eebb 185d 863c
000003a0: cd93 0f3b c145 a23c 0960 d3bb 6338 cbbc
000003b0: 8950 8e3c 15ff 55bc d02e ac3c bb6d 5bbc
000003c0: 848a 9eb9 59fd d83c 7277 49bc 95d5 8c3c
000003d0: cb0b 263c 42c2 92bc 71d3 ad3a d0d1 b8bb
000003e0: b660 983c 01dd 513c 9695 4b3c f136 8e3c
000003f0: 79fa 80bb 0874 6bbc acd8 a5b9 cca1 32bc

dense1.bias f4 [10]
-0.031929288 0.056927573 -0.0061482973 -0.013660571 -0.0179996 0.021480918 -0.02085664 0.019787533
-0.008663481 0.004618302
00000000: 49c8 02bd e32c 693d a877 c9bb 96d0 5fbc
00000010: e673 93bc c0f8 af3c 8bdb aabc 7719 a23c
00000020: 46f1 0dbc 2055 973b
